workspace/load_test/theano_params.npz (npz, 129598 bytes, 5 tensors)

arr_1 f4 [50]
00000000: 39e5 a23e a625 8a3e 43bd 80bd 23cf f53d
00000010: de50 fdbb be83 c7bd 3301 ac3d 2c71 8d3e
00000020: 3691 093f 078a a33e e634 623c 6eae 153d
00000030: 2cee 033e d057 bb3a 2d9e 89bc 0b66 d8bd
00000040: afde 0f3e 2479 383e e162 983d 6678 9b3e
00000050: 37ac 163e 1bbd 923e 9a2a f93e 60af 1a3e
00000060: 3596 973e bf3d 783e 8835 e53e 734b e53e
00000070: 588c 263e b6bd 0ebd 0c3c 2a3e bea7 733d
00000080: aa45 8bbc 3884 863e 82ab 993e e4a0 df3e
00000090: 5757 3e3d d6a1 bc3e cc95 acbd 345e b03e
000000a0: a55b 4fbd 85f2 b13e 39b0 0c3e cbe1 13be
000000b0: 161e fe3c 5336 38bd 8ae1 903e 6434 a73d
000000c0: d4f3 6d3e f9a3 923e
0.31815508 0.26981848 -0.06286099 0.12002399 -0.0077305874 -0.09741925 0.08398666 0.27625406
0.537372 0.31941244 0.013806557 0.036543302 0.12883824 0.0014293138 -0.016799057 -0.10566338
0.14049791 0.18014961 0.07440735 0.30365294 0.14714132 0.286599 0.48665315 0.15105963
0.29606786 0.24242304 0.44767404 0.44784126 0.16264474 -0.03484889 0.16624469 0.059486143
-0.017000992 0.2627275 0.30013663 0.43677437 0.046470013 0.3684222 -0.08427009 0.3444687
-0.05062451 0.3475534 0.13739099 -0.14441602 0.031020205 -0.044973683 0.28297073 0.081642896
0.23237544 0.28640726

arr_0 f4 [50, 1, 1, 369]
00000000: c553 61bd 74e5 3f3d 342e 3cbc 639f 013d
00000010: 53e0 e5bc 1ca7 de3d d712 223e a98e 303c
00000020: 9bdc 923e cb38 cb3c ad2e e63d 5b24 4b3f
00000030: d687 3ebd 6d8b 943d f0b7 833c c504 df3d
00000040: bc13 5d3e 6683 d43c 8a09 a13d c1a5 2b3f
00000050: 4887 a23c 9b99 cc3d 1322 c43d 5896 0a3e
00000060: 0945 433e 9ae8 71be cfe2 153d 08a6 e93d
00000070: 43b8 dabd 87d8 a1bd be5e 89bd b56a 163e
00000080: 0576 15bd f9da 953d bb94 b7bc 7617 f2bd
00000090: e778 953d b4ac 17bf 88f3 db3e d455 f33e
000000a0: fb22 223e 1203 d03d 95a5 713d fd0e 05bd
000000b0: e11b 353e 4f86 abbd c583 ba3e ab73 053e
000000c0: 2d28 443e 094e 563e 6e49 3ebe ac12 39be
000000d0: 28f9 473c eb04 423c 451e 6dbd 565c 333c
000000e0: a53d f53d f38d 923d 803b 9dbb 3472 bb3c
000000f0: 7a79 c23d fa7e a53d 50b3 f53d ae7f 04be
00000100: a86f a43d 2d2a 85be c969 fe3d a10b e53b
00000110: ef33 fabd 7913 0b3f 5f6c 8e3c 3bb6 00bd
00000120: 75f9 893d 2020 003d 7139 51bd eb87 db3d
00000130: 0d13 293d a240 5fbd 1746 863d 2409 393e
00000140: 31ee d33d d0b9 613d 7234 a7bd 5658 06bb
00000150: 54a9 8bbb 92cf 45bc 8621 a73e 15ed cbbc
00000160: e572 a3bc ccaa df3d 266a 2abe 1c9b a1bd
00000170: 90fe d2bc 3d3f 97bc 548c b13d be46 253d
00000180: 228f 483d d736 843d 2f3c 113e 23fb 0ebc
00000190: 46d6 3bbe bec8 17be ecad eb3d b3ea 50bd
000001a0: cca8 4bbd 9de4 71bd add4 fdbd 664d 94bd
000001b0: 8cc6 13bd fa3b 2f3e e815 1a3d d731 8c3d
000001c0: 3139 17bd 2a69 ee3c 77f3 8b3d 6496 33bb
000001d0: 93df 5a3b f92a 04bb 2202 01ba 1caa 623d
000001e0: 044d a5bd 8beb ab3c 2df1 43bc a049 19be
000001f0: 1429 4b3c 64f0 34bd 72ab 313d f646 b63c
00000200: ac31 63be 3744 ccbb 3ff6 923c 69d5 6dbd
00000210: 3a9e 80bd b695 48be eced 4b3e 1241 5c3c
00000220: fed4 aabd c103 80bd add0 333d e571 b53d
00000230: acc8 013e bd41 e9bd 0580 763e f668 133d
00000240: 49d1 623d 80ec 063e 9179 9a3e 14e2 ecbd
00000250: d5b4 92be d7f0 3d3d 124c a63d f283 73bd
00000260: ca3b b23e 95b1 82bd 65f3 29bd 069d b63c
00000270: d871 193e 1174 24bc ca14 b2bd c9dd 243e
00000280: c824 c83d d6c7 e0be c326 c5bd 3567 833e
00000290: 4038 fdbc 2087 18bf c5e1 9cbd 682a 88be
000002a0: 210e 22bd d466 52be 81df f6bc dc61 29bd
000002b0: 788a cdbd 8d8b 28bc b5b7 2abf f2b9 d03d
000002c0: de99 7dbd b855 52bc b06d 0d3b a3d1 9cbb
000002d0: e2b5 00bc 8dfa 483d 8807 933e e35f 0c3c
000002e0: 0e40 143d f83b 09bd fcf7 dfbd 581d b43c
000002f0: 314a c1bd a60a 90be 9fc9 213d 625b a5bc
00000300: c2eb 1d3d 3c70 b1be 10ca 9abe 50d7 553e
00000310: a892 a1be 7fcf 3abd ce4d 4fbe f616 1cbd
00000320: 104b 563c 8512 a4be cf34 213d 2c82 e33e
00000330: 71c3 d8bd a9a6 083d 5782 693d a816 6cbe
00000340: 49ed feba d210 c63d 2fb3 263c 03ca 3cbc
00000350: 084c 75be dd4e 0cbe 0491 b6be 4bfa 27bd
00000360: 56ab 9bbd 0deb 90bd c81d 3abe d346 babc
00000370: c01a 433e 00dd a1bd 9933 0cbe ae6c 6fbb
00000380: db28 043e 081b 163d 97a9 d73d cfdf c1bd
00000390: c37f 1b3e e1ae 2a3f 1d9c ebbd 695a f2be
000003a0: b4e9 1abf b2ca 8f3a bd1d dcbc 3650 c9b9
000003b0: 8025 d0be bdc7 383c 8c1d 7abe 486f c43c
000003c0: 00a2 0dbe 9ca9 cf3c 3677 283f c3c1 bbbc
000003d0: 75f8 ba3d 2c95 da3b 932d 3b3e 0f0b d9be
000003e0: 81d2 15be a971 46bd 4efe c3be 27ca 70be
000003f0: 390e e7bd c9d8 c0bd 18e8 21bd f025 f8be
-0.05501153 0.046849683 -0.011485625 0.031646144 -0.028061068 0.10871717 0.158275 0.0107762
0.28683934 0.024807354 0.112393714 0.7935235 -0.046516262 0.07253156 0.01607892 0.108895816
0.2158956 0.025941562 0.078631476 0.67049795 0.019839898 0.099902354 0.09576812 0.13533914
0.19069304 -0.23623887 0.036593255 0.11408621 -0.106796764 -0.079026274 -0.06707524 0.14689143
-0.036489505 0.07317156 -0.022409787 -0.11820881 0.07298451 -0.592479 0.42959237 0.4752642
0.15833656 0.101568356 0.058995802 -0.032484997 0.17686416 -0.08375227 0.36428657 0.13032405
0.19155951 0.20928206 -0.18582699 -0.18073529 0.0122054 0.011841993 -0.057890195 0.010947308
0.119746484 0.07155981 -0.0047983527 0.022881605 0.09495826 0.080808595 0.11997092 -0.12939331
0.08029109 -0.2600874 0.12422521 0.0069899117 -0.12216937 0.5432659 0.01738566 -0.03142379
0.06737033 0.031280637 -0.05108017 0.10719284 0.041277934 -0.054504998 0.06556337 0.18069893
0.10348166 0.055108845 -0.081643 -0.002049943 -0.004262129 -0.012073414 0.32642764 -0.024893323
-0.019952247 0.10921249 -0.16642055 -0.07890913 -0.02575615 -0.018462772 0.086693436 0.040350668
0.048964627 0.06455772 0.14183114 -0.008726868 -0.18343458 -0.14822671 0.11507782 -0.051005077
-0.049721524 -0.059055913 -0.1239408 -0.07241325 -0.03607802 0.17112723 0.037618548 0.06845444
-0.036919776 0.02910288 0.068335466 -0.0027402872 0.003339742 -0.0020167215 -0.0004921277 0.05533801
-0.0807133 0.02098634 -0.011959356 -0.14969492 0.0123999305 -0.044174567 0.043376394 0.022250634
-0.22186917 -0.006233718 0.017939685 -0.058064852 -0.06280179 -0.1958836 0.19914979 0.013443248
-0.08341406 -0.06250716 0.04390018 0.08859614 0.12674206 -0.11389492 0.24072273 0.03598877
0.05537537 0.13176155 0.30170873 -0.115665585 -0.2865359 0.04637226 0.08119978 -0.059452005
0.3481124 -0.06381527 -0.041491885 0.022291671 0.14984834 -0.010037438 -0.086953714 0.1610023
0.097726405 -0.43902463 -0.09626534 0.25664678 -0.030910611 -0.59581184 -0.076602496 -0.26594853
-0.039564256 -0.20547038 -0.030135872 -0.04135309 -0.100361764 -0.010287178 -0.66686565 0.10191716
-0.061914317 -0.01283782 0.0021580271 -0.004785733 -0.007855864 0.04906707 0.28716683 0.008567783
0.0361939 -0.033504456 -0.10935971 0.021986648 -0.09437979 -0.28133124 0.03949892 -0.020185176
0.038554914 -0.3465594 -0.30232286 0.20882916 -0.31557202 -0.04560804 -0.20244524 -0.038107835
0.01307942 -0.3204538 0.039357003 0.4443525 -0.105841525 0.033362065 0.057009067 -0.23055518
-0.0019449379 0.09671177 0.010174557 -0.011522773 -0.23954785 -0.13701959 -0.35657513 -0.041010182
-0.07601039 -0.070760824 -0.18175423 -0.02273885 0.19053173 -0.079034805 -0.13691558 -0.0036533284
0.1290621 0.036646873 0.105303936 -0.09466516 0.15185456 0.66673094 -0.115043856 -0.47334602
-0.6051285 0.0010970442 -0.026869649 -0.0003839747 -0.4065361 0.01127809 -0.24425334 0.023978844
-0.1383133 0.02534943 0.658069 -0.022919541 0.09129421 0.0066706147 0.18279104 -0.4239125
-0.14631082 -0.04844824 -0.38279957 -0.23514615 -0.1128201 -0.094163485 -0.039527982 -0.48466444

arr_3 f4 [30]
00000000: 4be0 c13d a4a1 8c3c 2839 c1bc 2fcd 9fbd
00000010: 1692 8e3d 74d4 1cb9 f081 153a 2016 96bd
00000020: f663 b93d e51f 73bc 8ce1 d83b 6754 17bd
00000030: f77e dbbc d664 113e 5b47 5b3d 8faa 1e3d
00000040: b7b7 0837 6bdd 4c3c 0f17 9dbc f79e 323e
00000050: 93f5 cb3c 7d0c a4bb 4f35 83bd d288 653e
00000060: 9fcd 7f3c 669b bcbb bb38 92bd 149d 59bc
00000070: 34df e23c cc34 163c
0.094666086 0.01716692 -0.023586825 -0.078028075 0.069614574 -0.00014956464 0.0005703261 -0.07328439
0.09052269 -0.014839147 0.006618684 -0.036945727 -0.02679394 0.14198622 0.053534847 0.038736876
8.149006e-06 0.012503962 -0.019176034 0.17443453 0.024897372 -0.0050063715 -0.06406652 0.22415474
0.015612989 -0.0057558296 -0.07139727 -0.013282079 0.027694322 0.009167861

arr_2 f4 [30, 50, 9, 1]
00000000: 28c7 bbbd 1a15 88bd f43d 5dbe 9108 5abe
00000010: 82f0 3bbd cf6e 953c 2dbb 7c3e 48eb 473e
00000020: 85e1 723e cda8 01bd 35b6 f0bd f12a cc3d
00000030: 53eb 0fbe 4c7a 4b3d 68f2 0d3d f8c1 10bb
00000040: ad5c 633e 5b30 703d 60a9 24be 54de 2abd
00000050: 43f4 c83d 7a8e e53c 1930 95b8 49b2 183e
00000060: ab10 31be a35e 763d c2ec dd3d eb72 8fbe
00000070: 124e 6a3d c346 8b3e 1118 423e 840d 51be
00000080: 4b42 38bd 9a78 3fbe 3866 ebbd 3c5b e2bd
00000090: 019a 0e3d 1d38 35bc 108f 8dbd 66c9 043d
000000a0: 7111 42be d238 e9bd 0ad7 403b bb90 bcbc
000000b0: 0280 243e 1bc9 00be e222 45bd 640f 58be
000000c0: 1a45 3dbe c487 c83d ec95 afbd 9999 713e
000000d0: ea2d 48be 1ba1 eb3d d8ce f43c 66ad 08be
000000e0: 5fdd d0bd d475 a9be e90f 96be 4072 883d
000000f0: 25e8 083e f8ff 34bd f7cc 58bc 89e1 5e3e
00000100: 5de1 5e3d a9d8 b83d 232a 7abc e4ae bfbc
00000110: 296d 653d 3079 9b3e 8dab 19be 8217 113e
00000120: da70 fbbe 6529 4f3d b6c5 54be c41e db3d
00000130: ac59 523e b766 0cbe 5857 643e d848 88be
00000140: 1f04 39be 9944 8dbe 4231 d93c d473 52be
00000150: fa5f 473c 6807 f43e 6f90 6dbd 123f b6bd
00000160: a377 c8bd 1bec 6cbd e04e 99bd 09ab 5d3e
00000170: 8cb7 0cbe bfef bc3e 46b3 6c3e bf4c c33c
00000180: 8d3c d93d bdc0 5e3e b0e7 bcbd 4538 b3bd
00000190: 673b 3e3d f1a5 88bd 71f5 00be 4253 f4bd
000001a0: 860f 18bd 5eb3 ab3d b584 a03d 37b9 703d
000001b0: 4070 76be ba69 1e3e 8080 4abe f0ed e9bd
000001c0: ecd4 e93d 1fff 293e c268 b4bc d210 96bb
000001d0: 198b 95bd 1548 58bd 034a e13d 6b67 fdbd
000001e0: a158 febd 7f01 45be 1e7e ff3c dff5 0a3e
000001f0: 590a f43d 39cb e43d 4e33 42be 76ce 84be
00000200: 9912 84bd 1faa 8dbe ec9b 5fbe 8c4f 173d
00000210: 1825 123d 1865 e0bc a2f3 84be 7109 1e3e
00000220: 03f0 6cbe ef9c ca3e 7a2a 583d f436 00bb
00000230: d94f 3f3e 715d d63d 3c6b 8fbe 8602 3cbd
00000240: 46af 543e 55dc 92bc 538c f23d 64cf 8c3d
00000250: 1814 94bd 78f0 623d b8e6 51bd 5989 02bd
00000260: b78b 193d 2135 55be 0e44 303e 68ca b4bd
00000270: f9d3 4fbd 2e60 ae3d 2155 8e3e e932 143e
00000280: 5c89 a13c 78d7 babc 5932 07be a860 303c
00000290: bf23 7a3d 28cd 0dbe 4b88 843d d798 16be
000002a0: 806f a6be ae07 bf3d b7db a73d 71e6 74be
000002b0: 0c02 de3b 5eef 7c3d 7cb0 c1bd 0961 d5bd
000002c0: cdfe 9cbd f399 4fbe caae 8cbc 9d57 9b3d
000002d0: c9f0 84be e9bc 35be 122f 69be 18de 6abd
000002e0: 7f57 313c 4dd5 dc3c d249 d53e 129e 25bf
000002f0: c0b6 5b3d a926 1ebc 66d9 673e bb33 26be
00000300: 465a 6cbd 8d4a 5dbd bad3 bbbd ad7e 433e
00000310: 7064 ef3b e406 a8be 3b50 a6be 9947 7a3d
00000320: efa2 ebbd bcf8 303e afcf 253e ba71 c13d
00000330: 6342 07be 5c3c edbd c8cb 30be 92d0 9bbe
00000340: 0743 0e3e 5194 b93d 3141 2a3e 9350 b73e
00000350: 75da e33d 84f3 b2be d6d8 ffbd b122 57be
00000360: ddb1 873d 6186 e4bd ff30 ea3c bdba 92be
00000370: 7352 96bd 1a3b dd3c c552 88bd ba6b 393e
00000380: 49f6 4cbe 652b 4f3b b076 4bbd eb98 a33e
00000390: 432e 373e d52c 81bd 6533 d0bd de9e 4fbe
000003a0: 8d4b cf3d c096 2f3d 15d6 26be 6e27 9e3d
000003b0: 1eaf 9b3e d252 33bc ef66 58bd d7d3 383e
000003c0: 56d9 103e 5927 033e 171e 943d 5a65 963d
000003d0: fcb2 d93c 59fc 79be be95 51be 79b9 fcbc
000003e0: 48cf 103e 7a4d a3bc 4f33 92bd 8197 023d
000003f0: a2d1 f63d 936d 78bd 9770 a1bd 6660 d83d
-0.091688454 -0.0664465 -0.21605664 -0.2129233 -0.045883663 0.018241314 0.24680777 0.19523346
0.23718841 -0.03165512 -0.11753503 0.09969128 -0.14054613 0.04967718 0.034655005 -0.002208827
0.22203322 0.058639865 -0.16080236 -0.041715935 0.09812214 0.02802204 -7.1138325e-05 0.1491176
-0.17291515 0.060148846 0.108361736 -0.28017363 0.05720336 0.27202424 0.18954493 -0.20415312
-0.044985097 -0.1869835 -0.11494106 -0.11052558 0.03481484 -0.011060742 -0.06912053 0.03241863
-0.18951966 -0.11387791 0.0029425048 -0.023018232 0.16064456 -0.12576716 -0.04812897 -0.21099621
-0.18483391 0.0979152 -0.08573517 0.23593749 -0.19548765 0.11505338 0.029883787 -0.13347396
-0.10198473 -0.33097708 -0.29309013 0.066624165 0.13369806 -0.044189423 -0.013232461 0.21765722
0.054414142 0.090257 -0.015268835 -0.023398824 0.056012306 0.30365896 -0.15006848 0.14169124
-0.49109536 0.050576586 -0.20778546 0.106992275 0.2054202 -0.13711058 0.22298944 -0.26618075
-0.18067978 -0.27591398 0.026512746 -0.20551997 0.012168879 0.476619 -0.05799907 -0.088987485
-0.09788444 -0.057842355 -0.07485747 0.21647276 -0.13741893 0.36901662 0.23115262 0.023840306
0.10607252 0.21753211 -0.092238784 -0.08750967 0.04644337 -0.06672276 -0.12593628 -0.11929943
-0.03712418 0.08383821 0.07837812 0.058770385 -0.24066257 0.15470019 -0.19775581 -0.11422336
0.11417565 0.16601227 -0.022022609 -0.004579642 -0.073019214 -0.052803118 0.11000445 -0.12373241
-0.12419248 -0.19238852 0.031188067 0.13570355 0.11916036 0.11171574 -0.18964884 -0.25938767
-0.0644886 -0.27668855 -0.21836823 0.036941096 0.035679907 -0.027391955 -0.25967127 0.15433289
-0.23138432 0.39572856 0.052774884 -0.0019564005 0.18682803 0.10467041 -0.280115 -0.045900844
0.20769987 -0.017927328 0.11843171 0.06875494 -0.07230395 0.05540511 -0.05124542 -0.031869266
0.037486758 -0.20821048 0.17213461 -0.088276684 -0.050739262 0.085144386 0.27799323 0.14472546
0.019718818 -0.022807822 -0.132028 0.010765232 0.061069246 -0.13847792 0.06471308 -0.14706741
-0.32506943 0.09327637 0.08196204 -0.23916031 0.0067751464 0.061751716 -0.0945749 -0.104188986
-0.07665787 -0.2027357 -0.01717319 0.0758507 -0.25964954 -0.17747845 -0.22771862 -0.05734071
0.010824083 0.026957178 0.41657883 -0.6469432 0.05364108 -0.009652772 0.22641525 -0.16230671
-0.05770328 -0.054026175 -0.09171243 0.19091292 0.0073056743 -0.32817757 -0.32483086 0.061103437
-0.115056865 0.17282385 0.16192506 0.0944552 -0.13208918 -0.11583778 -0.17265236 -0.30432564
0.13892756 0.09061492 0.16626431 0.3580366 0.11125652 -0.34951413 -0.1249253 -0.21009327
0.066257216 -0.11158443 0.028587816 -0.28658095 -0.07339945 0.02700572 -0.06656412 0.181075
-0.20015825 0.0031611559 -0.049673736 0.31952605 0.17888741 -0.06307379 -0.10166053 -0.20275447
0.10121832 0.042868376 -0.16292603 0.07722364 0.3040704 -0.010945039 -0.05283254 0.1804956
0.14145407 0.12807979 0.07232302 0.0734355 0.026574604 -0.24412669 -0.20467278 -0.030850159
0.14141572 -0.019934405 -0.071386926 0.031882767 0.12051703 -0.060651373 -0.07882803 0.105652615

arr_4 f4 [30, 1]
00000000: 3ae5 5d3e 70a1 f73c 3388 edbd 4df5 50be
00000010: 5e5a 903e 9d02 3f3d bdf5 a03d 8162 823e
00000020: ca49 5f3e de5b 8335 f7b3 51be 3906 fa3d
00000030: 2943 113b b283 96be 0710 3d3e 2738 ae3e
00000040: ce5e 3835 17c2 ca3d 4bd0 663e 6012 82be
00000050: af85 3fbe 20b0 f2bc 4805 5e3e bcb4 aa3e
00000060: 781f 5dbe da5a 233e bdb2 3ebe 11cb f03b
00000070: 0b5b 69be ba50 673e
0.21669474 0.030228347 -0.115982436 -0.20406075 0.28193945 0.04663335 0.07859371 0.25465778
0.21805492 9.786997e-07 -0.20478807 0.12208218 0.0022165275 -0.2939735 0.18463145 0.34027216
6.86833e-07 0.09900301 0.22540395 -0.25404644 -0.1870334 -0.029624999 0.21681702 0.33341014
-0.21594036 0.15952626 -0.1862287 0.007348426 -0.22788636 0.22589388
